minst 2 digit/mnist_model_fully_connected.pt (torch, 670031 bytes, 4 tensors)

weight f4 [32, 1, 3, 3]
00000000: d89e dc3e 9540 083e 8cc4 13be 3227 943e
00000010: ab4c 0c3f e241 033f 1c2b 1dbe 34ad 053f
00000020: da6e 973e f974 67be 6131 ee3e d418 403e
00000030: ab17 243e db86 a03e 97f6 9b3e 6284 a7bd
00000040: 41e7 bd3e 3855 d93e d2b4 76be dbf3 de3d
00000050: 565f 9dbd e413 8cbe 8d67 28be 1dea 0abd
00000060: cf62 64be 91e9 383e 4fa1 693e a011 4cbe
00000070: b23b 67be be86 9a3c 2561 5f3d d8a6 5d3e
00000080: 0218 603c f31c 53be 40f9 4d3d 7a14 b13e
00000090: bdcb a23e 8425 f03e d398 163e e7ac d4bc
000000a0: e4a7 ef3d e9fa 4bbe 2b38 fa3e b818 3f3e
000000b0: e0ac 573e f03e 273e 3cf5 eabd 57e4 273d
000000c0: 9dd4 853e ba86 59be 800f 28be 3ab0 093f
000000d0: 5511 ae3e 0f74 8d3e c6de 74be 6912 d3be
000000e0: 7b90 6bbe 1bec 8fbe 3056 46be e146 8d3e
000000f0: 24db 6c3e 3f16 583e 7fa5 96be b9f4 633e
00000100: 3bfd 01be 183d 0cbd bd9a 9b3e 5d3e f3bc
00000110: e663 673e 0222 633e 2d74 70bd aaa6 5f3e
00000120: 248e 053f 0bfb 3d3e 04c9 45be eb5f bb3e
00000130: 7d1f c43e d75c ab3e 95da 553e 3686 7f3e
00000140: 2c54 603e 9f19 15be de8c 133e 991d 5dbd
00000150: 601b 343e 2571 403e 60c3 6dbe a2e2 ed3e
00000160: 047a d83e e318 5dbe d242 48bd 0249 5d3e
00000170: f357 c13d 5792 11bd 8264 eabd 4169 d03e
00000180: e884 92be b694 cb3e a128 073e 883c 0c3b
00000190: c514 fdbe d5c3 b0be eda5 fbbe 993d db3c
000001a0: 83e2 dbbe e1fb c9be 1bb8 eabd cd47 8dbe
000001b0: e740 9bbe e19a dabe 14a7 d7be a445 febe
000001c0: 491c 0fbf 6fc4 f0be 7af2 53bd 0228 2dbe
000001d0: 0e79 e0be b259 a33e bbc4 053d 360c 80be
000001e0: 20c4 0abe 1918 743d 9f3f 1bbe 90ea cb3e
000001f0: f2a1 4cbd 2ce8 963e 65b0 3fbd 06c1 90bd
00000200: 2d1b 363c 04ae cc3e 8192 903e 6b22 4f3e
00000210: eaa0 c13b 7215 0c3d 8ad1 21be c659 c1be
00000220: 5413 63be 389f 98be d47e f7bd 553b 453e
00000230: e9b0 4b3c 5505 b7be d0bb 293d d4e9 c8bd
00000240: 6947 7dbe a385 a43e 2095 5e3e 0b05 a6be
00000250: dd5b 9a3e c790 5d3e 1e69 53be 0a4a 3d3e
00000260: cf4d bdbd 694b bdbd b8da 043f 6065 e73e
00000270: d573 503e 1cb1 063f fe69 423d 0b49 0f3f
00000280: 8fd0 123f 4a42 00be fc31 cd3e f663 533c
00000290: ef25 b03e ba79 62be 9cd7 b73e 63a1 f9bd
000002a0: dbfd adbe b1c0 4abe ae93 873e a8c3 50bd
000002b0: 08db 23be 054c 4bbe 0d26 d8be b097 b3be
000002c0: bab5 08bf b8c9 f1be 38d5 ebbe e260 56bd
000002d0: 2ef7 3d3e 6498 8c3e aa3f 7fbe c47d 363e
000002e0: 4b02 b5be add4 1fbe 0183 adbd 8c35 a7bd
000002f0: b8e2 fabd f2a8 403e cad9 8b3d 808a 8fbe
00000300: 07fd 753e 0a6c 62be 84a9 f2bd abf2 1cbd
00000310: 40cd 1a3b 8022 71be 219f 1bbe cca6 54be
00000320: 4aee acbe 1822 bbbe 859a 933c 5da4 babe
00000330: bf71 98be 4272 a4bd eddb 35be 45e2 93be
00000340: 1ea0 423e 53a4 28be 252b a6be cff5 ff3d
00000350: d7d9 063d c18e c7be bef4 133e 7db2 7dbd
00000360: 5c64 8ebe b793 153e 93b6 a23d 4755 3cbd
00000370: 92a1 c7bd cf25 583e 4196 ccbe 8da2 6cbe
00000380: caa2 46be 9a0e 973d 0eee ab3e bc2b a9bc
00000390: 41f9 043f 583d 063f 419d f73d 00f6 843e
000003a0: b8ac 7d3e 3bce 3f3e 16d3 ecbd 8c9c 3b3e
000003b0: 62d0 173e f7cc d43e 0a9f 31bd 52c0 17be
000003c0: d60e 05bd 37dc 8e3e 0e18 ef3e 10a9 6e3e
000003d0: 2b10 a6bd 3203 99be cef0 4cbd 0a1f 1e3e
000003e0: ed6f 72be d7b9 c3be d622 b0bd 6bf2 99be
000003f0: 3061 963c 82e5 393d 1c45 8a3e 2153 503c
0.43089938 0.13305886 -0.14430445 0.28936154 0.54804486 0.51272404 -0.15348476 0.5221741
0.2957676 -0.22603215 0.46522048 0.18759471 0.16024654 0.31352887 0.3046157 -0.08179547
0.37090495 0.4244783 -0.24092415 0.108863555 -0.076841995 -0.27358925 -0.16445751 -0.033914674
-0.22303317 0.18057849 0.2281544 -0.19928598 -0.22581366 0.018863078 0.054536004 0.21645677
0.013677599 -0.20616512 0.05028653 0.34585935 0.31796065 0.46903622 0.14706735 -0.025961353
0.117019445 -0.19919933 0.48870978 0.18661773 0.2106204 0.16332603 -0.11472556 0.040989246
0.26138774 -0.212428 -0.16412163 0.53784525 0.33997598 0.27627608 -0.23913106 -0.41224983
-0.23004334 -0.28109822 -0.19368815 0.2759314 0.2313047 0.21102236 -0.29423138 0.22261323
-0.12694256 -0.03423795 0.30391493 -0.029692823 0.22596702 0.22180942 -0.058704544 0.21840921
0.52170014 0.18552797 -0.19314963 0.36596617 0.38305274 0.3346927 0.20884164 0.24953541
0.21907109 -0.14560555 0.14409205 -0.053983305 0.17588568 0.18793161 -0.23219061 0.4646197
0.4228059 -0.21591525 -0.04889185 0.21609882 0.09440603 -0.03553995 -0.114449516 0.40705302
-0.28617024 0.39761895 0.13199092 0.0021398384 -0.49429908 -0.34524408 -0.4915003 0.02676277
-0.42946252 -0.3944998 -0.114608966 -0.27593842 -0.30322954 -0.42696288 -0.42119658 -0.49662507
-0.55902535 -0.47024867 -0.051744916 -0.16909793 -0.43842357 0.3190437 0.03265832 -0.25009316
-0.13551378 0.059593294 -0.15160988 0.39827394 -0.04995913 0.29474008 -0.046799082 -0.07068066
0.011114878 0.39976513 0.28236774 0.20227973 0.005909075 0.03420014 -0.15802589 -0.37763804
-0.22175342 -0.29808974 -0.120847374 0.19260915 0.012432315 -0.35746256 0.041438878 -0.09810224
-0.24734272 0.32133207 0.21736574 -0.32425722 0.3014821 0.2163726 -0.20645568 0.18485275
-0.092433564 -0.09242899 0.5189624 0.4519453 0.20356686 0.52614 0.047464363 0.5597083
0.57349485 -0.12525287 0.40077198 0.0129022505 0.3440394 -0.22116747 0.35906684 -0.12188985
-0.3398274 -0.19800068 0.26479858 -0.050967842 -0.16001523 -0.19853218 -0.4221653 -0.35076666
-0.5340229 -0.47224212 -0.4606111 -0.05233849 0.18551323 0.27460015 -0.2492663 0.17821413
-0.35353312 -0.15608473 -0.08472253 -0.0816451 -0.122502744 0.18814448 0.06828649 -0.28035355
0.24022304 -0.22111526 -0.11848739 -0.038317364 0.0023620874 -0.23548317 -0.15197422 -0.20766753
-0.3377555 -0.3654945 0.018018017 -0.36453524 -0.2977428 -0.080296054 -0.17759676 -0.28883567
0.19006392 -0.16468935 -0.32454792 0.12498056 0.032922592 -0.389761 0.1444883 -0.061937798
-0.27810943 0.1460713 0.079449795 -0.045979764 -0.09747614 0.21108173 -0.39958385 -0.23108883
-0.19398037 0.07375832 0.3358006 -0.020650737 0.5194283 0.52437353 0.12090541 0.25968933
0.24772918 0.18731014 -0.11563699 0.18321437 0.14825585 0.41562626 -0.043364562 -0.14819458
-0.03248485 0.27902386 0.4669804 0.2330668 -0.081085525 -0.2988525 -0.050034337 0.15441528
-0.23675509 -0.38227722 -0.086003944 -0.30067763 0.01835689 0.04538489 0.2700585 0.012715132

bias f4 [32]
00000000: b0df b2be 9c3f 83bd 9904 943e 006c 67be
00000010: 65e7 82be 561a 95be 1c32 43be ea68 a1bd
00000020: eaab 70be fae4 853d b911 a3be 756e 873e
00000030: 6b7a 313e bf70 9e3d 1a87 143e b912 3e3e
00000040: bdac c73d be42 15bf d843 45be 86f2 5abd
00000050: dc6d 623e 7c17 84bd ee38 bbbd 6a8c 8c3e
00000060: a695 29be 21e5 e6be 2c42 c23d 78d8 1bbe
00000070: bf7b 16bf 2e6c 93be 99e3 52be 527f eb3d
-0.34936285 -0.06408617 0.28909758 -0.22599792 -0.25567165 -0.29121655 -0.19062084 -0.07881339
-0.2350308 0.065378144 -0.3184946 0.2645146 0.17331855 0.07736348 0.14504662 0.1856183
0.09749744 -0.58304965 -0.19264162 -0.053453945 0.2211222 -0.06449792 -0.09141718 0.27450877
-0.16560993 -0.45096686 0.094852775 -0.15219295 -0.5878257 -0.28793472 -0.20594634 0.11498894

weight f4 [20, 8320]
00000000: d05a 01bc 2c63 263b 2c92 14bb 077f fb3b
00000010: 1d6e 0ebc ef01 a7bb 5bbd 01bb 1943 473a
00000020: 40ab 0fbb 30a5 f8bb e46f a6bb c680 4a3b
00000030: fd68 5bbc ef29 e939 49f5 97bb a699 8b3a
00000040: 2c78 83ba d244 2cbc fda3 8d3b 8ffa 8cbb
00000050: 5c9c 28bb 184f 31ba f18f 0fbc b380 cd3b
00000060: d928 14bc 5a19 c73b b53a bbbb 82ca ab3b
00000070: 5d7c a3ba a26b 0dbb baa8 083c c242 93bc
00000080: 7775 dfb9 3017 bd3a 7ecb 06bc 30a1 dc3b
00000090: 6e0e 1e3c 06e5 fabb 2413 4dbc ab11 15bc
000000a0: 2059 8a3b f14d f6bb cf3d 93ba f175 b9bb
000000b0: ec00 29ba d87b e33b 61bf 0fbc e06f b1bb
000000c0: 8a9e f23b b16e 1a3c ac0e 093b 4d84 d93b
000000d0: df61 db3b a827 bbbb f536 29ba 4ab2 c8b9
000000e0: 6e7b 853a 251b c6bb b3d8 0ebc 7aa0 4aba
000000f0: cf2b 02bc 851f 183c 33f2 bdbb 5d3b 10bc
00000100: b10c 8e3b f42e cb3b 3a6b f9bb 0e31 b73b
00000110: 2d8e 123c ccac 0a3a 46b5 2cbc d21a c7bb
00000120: e20e 5b3b 9dbc aabb 07a0 aaba c3c2 63bc
00000130: c849 793b 57c1 c53a 3366 c8bb dc76 15bb
00000140: 9b43 253b 80db 9eba d059 07bb 5957 0cbb
00000150: 44c9 823b 7b40 09bc 82e4 3abc b024 aeba
00000160: bea2 0dbb 61fc 933b b33d 26bb 83d5 3b3c
00000170: c58b 1dbc 88c0 a1bb 19a4 12bc 7775 7ebc
00000180: 801a 15bc 8116 9dbc e701 f8ba f274 3dbb
00000190: 4367 dabb b290 6eba 8786 e8bb bff9 d63b
000001a0: 6765 2ebc abd9 cc3b 76bc 2abc 5663 5bbc
000001b0: 7799 8cbb d35a adbb 768d d2bb 16ce b73b
000001c0: ac75 78bb 7268 413c 8e84 433b c1ff 573b
000001d0: 18a9 17bc af1d 3fbb 253c 3bbc 688f 7dbc
000001e0: f1ca 24bc 267e 13bc c930 973b 93b2 d13b
000001f0: 1450 ba3c fadb 193d a8c7 603d c14e af3c
00000200: b51d 3abb 87ff 29bc e959 00bc bfbb 303a
00000210: 4fb2 2b3b efc1 eebb c1e5 60bb 08bd 453c
00000220: b87b 503b 9ab0 c63c e623 e23c b2dd 8a3d
00000230: c279 7f3d 69e0 113c faf7 48bc 109e c539
00000240: f70b 3cbc 92a1 223c fa82 a93c c96c 043d
00000250: 8ad5 893c 6337 22bb d343 b7bc 4d04 f5bb
00000260: 1f69 c73d 8317 063e fdb3 433d 0353 37bc
00000270: 786d 5d3a 5343 01bc fe03 263d c71f 8c3d
00000280: ca57 403d a0cb 573c b2fa 35bd 4873 bfbd
00000290: 3b57 5ebd 255a 6c3d 04a8 133e bb07 9d3d
000002a0: 6156 febb fbc3 c23a a602 db3c a988 ac3d
000002b0: 40c4 df3d 6156 fd3c 81cb 83bd fbe3 11be
000002c0: aff5 34be c774 96bd d3bf 833d 150f 0b3e
000002d0: cf04 973d 4ba9 693c 500f 1dbc 22d4 bf3c
000002e0: c3a8 c93d a270 dd3d 440e 6b3c 814e d0bd
000002f0: cc3a 2bbe 9d12 1dbe 0957 1cbd aa9d 683d
00000300: 39cd f03d 07b1 8a3d b712 c83b 5d78 2cbc
00000310: b172 1f3d 0cb0 c93d 79a4 113e 14cd 323d
00000320: 22e8 82bd 8456 bfbd 0523 5cbd 901e 7a3c
00000330: 787b 963d 6cd1 a13d f7ec ea3c 68ea bd39
00000340: 5dd9 20bc 4299 6d3c 9ec5 b63d e39b 083e
00000350: 8900 bd3d 1a38 ad3b af44 83bb 5e19 993c
00000360: e471 023d c2fb 553d 3055 033d 1a99 1a3c
00000370: c71b c1ba 49e4 673b e8bd 293c 1e73 293d
00000380: 7fae be3d fefe c43d 5034 9e3d cbc4 403d
00000390: bd46 1a3d cc1f f43c a837 c43c b0bd 9b3c
000003a0: 8ca8 7fbc defa 2b3c afde 28bc 43ca 0bbc
000003b0: e005 c63b 8972 de3c 5f9f 023d 36f4 303d
000003c0: 6b8d f43c 5b2f 2e3c 0156 10b9 3fbb a9bb
000003d0: 8aa4 cfbb e754 22bc afd9 e13a a6d0 79bb
000003e0: f419 5f3b eb77 a93b 01bb 963b ce4f b7bc
000003f0: 5d34 94bc c7d4 f5bc 274b 18bc 2aca 9ebb
-0.007895187 0.00253887 -0.0022670133 0.007675055 -0.008693245 -0.005096666 -0.0019796703 0.0007601246
-0.0021922141 -0.0075880513 -0.0050792564 0.003089951 -0.01339173 0.00044472466 -0.0046373946 0.0010650649
-0.0010030321 -0.010514455 0.0043225274 -0.00430233 -0.0025727963 -0.00067638 -0.008762346 0.0062714457
-0.009042942 0.00607602 -0.0057137855 0.0052426467 -0.0012472976 -0.0021579047 0.008341009 -0.017976169
-0.00042621393 0.0014426466 -0.008227227 0.0067330822 0.009646995 -0.0076566963 -0.0125167705 -0.009098451
0.0042220503 -0.0075166156 -0.001123363 -0.0056598117 -0.0006446976 0.0069422536 -0.008773656 -0.005414948
0.0074041532 0.009425805 0.0020913286 0.006638086 0.0066950168 -0.0057115145 -0.00064550276 -0.00038279808
0.001018388 -0.0060457163 -0.008718657 -0.00077296013 -0.007945015 0.009284859 -0.0057966947 -0.008803216
0.004335009 0.0062006656 -0.0076116594 0.0055905646 0.00894503 0.0005290031 -0.010541266 -0.0060761953
0.003342562 -0.0052104727 -0.0013017663 -0.013901415 0.0038038362 0.0015087527 -0.0061156987 -0.0022806441
0.0025217298 -0.001211986 -0.0020652898 -0.0021414368 0.003991278 -0.00837719 -0.01140702 -0.001328608
-0.0021611894 0.00451617 -0.0025366365 0.011464479 -0.009615843 -0.0049362816 -0.008950257 -0.0155309355
-0.009100556 -0.01917577 -0.0018921465 -0.0028908816 -0.006665142 -0.0009100541 -0.007096115 0.006560534
-0.010644293 0.006251534 -0.010420909 -0.013390383 -0.0042907554 -0.005290368 -0.006425555 0.005609284
-0.0037911935 0.011804687 0.0029833647 0.0032958838 -0.009256624 -0.002916198 -0.011427914 -0.015476085
-0.010058151 -0.009002244 0.00461397 0.0063994615 0.022743262 0.0375633 0.054877907 0.021399857
-0.0028399054 -0.010375864 -0.007833936 0.00067418435 0.002619881 -0.0072863023 -0.0034316631 0.012068994
0.0031812023 0.024254132 0.027605008 0.06780566 0.062371977 0.008903601 -0.0122661535 0.00037692534
-0.011477462 0.009926217 0.020692337 0.032330308 0.016825456 -0.0024752251 -0.022371208 -0.0074773193
0.09736847 0.13094907 0.047779072 -0.011189225 0.0008446793 -0.0078895865 0.04053115 0.068419985
0.046958722 0.013171107 -0.044428535 -0.0934816 -0.05428241 0.057703156 0.14419562 0.0766749
-0.007761762 0.0014859432 0.026734661 0.08424503 0.109261036 0.030924978 -0.064353 -0.14247124
-0.17671846 -0.07346492 0.06433072 0.13579972 0.07373964 0.014261554 -0.00958617 0.023416582
0.09846642 0.10812499 0.014346663 -0.101712234 -0.16721648 -0.15339132 -0.03816894 0.056790985
0.11757893 0.067720465 0.0061057466 -0.010526744 0.038927738 0.098480314 0.14222898 0.04365261
-0.06391932 -0.093426734 -0.053744335 0.015266076 0.073477685 0.07901272 0.028677447 0.00036223535
-0.009817448 0.014501872 0.08924411 0.13340716 0.09228618 0.005286229 -0.0040059905 0.018688854
0.031846896 0.052242048 0.032063663 0.009435916 -0.001473301 0.0035383871 0.010360219 0.04136955
0.09310626 0.096189484 0.077248216 0.047062676 0.037665118 0.029800318 0.02395232 0.019011348
-0.01560415 0.010496823 -0.010306998 -0.00853211 0.006043181 0.027154224 0.03189027 0.043201648
0.02985259 0.010631408 -0.00013764949 -0.005179792 -0.0063367533 -0.009907938 0.0017231012 -0.003811875
0.003404257 0.005171766 0.0045999293 -0.022376921 -0.018091375 -0.030008687 -0.009295261 -0.004845877

bias f4 [20]
00000000: 78c0 63bc 1764 a03a 2764 ee3a 55e7 863b
00000010: a8e3 f3bb e9c4 713a a16b eebb e9a9 f43b
00000020: 2f2c 00bc 78ce 3e3b cfca 27bc f2dc d5ba
00000030: 60d0 9d3b cf32 dc3b 7f14 0cbc 2b5b b43b
00000040: 70e2 02bc d51e d0bb 8afa 233b 7b7a f13b
-0.013900869 0.001223686 0.0018187807 0.0041169324 -0.00744291 0.00092227623 -0.007276014 0.007466544
-0.007823034 0.0029114764 -0.010241224 -0.0016316457 0.0048161 0.006719924 -0.0085498085 0.005504032
-0.007988557 -0.0063513317 0.002502116 0.007369337
